Model: "model_10"
_________________________________________________________________
 Layer (type)                Output Shape              Param #
=================================================================
 input_24 (InputLayer)       [(None, 64, 64, 3)]       0
 block1_conv1 (Conv2D)       (None, 64, 64, 64)        1792
 block1_conv2 (Conv2D)       (None, 64, 64, 64)        36928
 block1_pool (MaxPooling2D)  (None, 32, 32, 64)        0
 block2_conv1 (Conv2D)       (None, 32, 32, 128)       73856
 block2_conv2 (Conv2D)       (None, 32, 32, 128)       147584
 block2_pool (MaxPooling2D)  (None, 16, 16, 128)       0
 block3_conv1 (Conv2D)       (None, 16, 16, 256)       295168
 block3_conv2 (Conv2D)       (None, 16, 16, 256)       590080
 block3_conv3 (Conv2D)       (None, 16, 16, 256)       590080
 block3_pool (MaxPooling2D)  (None, 8, 8, 256)         0
 block4_conv1 (Conv2D)       (None, 8, 8, 512)         1180160
 block4_conv2 (Conv2D)       (None, 8, 8, 512)         2359808
 block4_conv3 (Conv2D)       (None, 8, 8, 512)         2359808
 block4_pool (MaxPooling2D)  (None, 4, 4, 512)         0
 block5_conv1 (Conv2D)       (None, 4, 4, 512)         2359808
 block5_conv2 (Conv2D)       (None, 4, 4, 512)         2359808
 block5_conv3 (Conv2D)       (None, 4, 4, 512)         2359808
 block5_pool (MaxPooling2D)  (None, 2, 2, 512)         0
 flatten_4 (Flatten)         (None, 2048)              0
 dense_20 (Dense)            (None, 100)               204900
 dense_21 (Dense)            (None, 10)                1010
=================================================================
Total params: 14920598 (56.92 MB)
Trainable params: 4925526 (18.79 MB)
Non-trainable params: 9995072 (38.13 MB)
_________________________________________________________________
Epoch 1/40

















































































































































…
