…
C:\Users\Lenovo\nizaanth\Lib\site-packages\keras\src\engine\training.py:3103: UserWarning: You are saving your model as an HDF5 file via `model.save()`. This file format is considered legacy. We recommend using instead the native Keras format, e.g. `model.save('my_model.keras')`.













184/507 [=========>....................] - ETA: 44s - loss: 2.2971 - accuracy: 0.1112Model: "sequential_8"
_________________________________________________________________
 Layer (type)                Output Shape              Param #
=================================================================
 conv2d_24 (Conv2D)          (None, 64, 64, 32)        896
 max_pooling2d_24 (MaxPooli  (None, 32, 32, 32)        0
 ng2D)
 batch_normalization_24 (Ba  (None, 32, 32, 32)        128
 tchNormalization)
 conv2d_25 (Conv2D)          (None, 32, 32, 64)        18496
 max_pooling2d_25 (MaxPooli  (None, 16, 16, 64)        0
 ng2D)
 batch_normalization_25 (Ba  (None, 16, 16, 64)        256
 tchNormalization)
 conv2d_26 (Conv2D)          (None, 16, 16, 128)       73856
 max_pooling2d_26 (MaxPooli  (None, 8, 8, 128)         0
 ng2D)
 batch_normalization_26 (Ba  (None, 8, 8, 128)         512
 tchNormalization)
 flatten_8 (Flatten)         (None, 8192)              0
 dense_16 (Dense)            (None, 256)               2097408
 dropout_8 (Dropout)         (None, 256)               0
 dense_17 (Dense)            (None, 10)                2570
=================================================================
Total params: 2194122 (8.37 MB)
Trainable params: 2193674 (8.37 MB)
Non-trainable params: 448 (1.75 KB)
_________________________________________________________________
Model: "sequential_9"
_________________________________________________________________
 Layer (type)                Output Shape              Param #
=================================================================
 conv2d_27 (Conv2D)          (None, 64, 64, 32)        896
 max_pooling2d_27 (MaxPooli  (None, 32, 32, 32)        0
 ng2D)
 batch_normalization_27 (Ba  (None, 32, 32, 32)        128
 tchNormalization)
 conv2d_28 (Conv2D)          (None, 32, 32, 64)        18496
 max_pooling2d_28 (MaxPooli  (None, 16, 16, 64)        0
 ng2D)
 batch_normalization_28 (Ba  (None, 16, 16, 64)        256
 tchNormalization)
 conv2d_29 (Conv2D)          (None, 16, 16, 128)       73856
 max_pooling2d_29 (MaxPooli  (None, 8, 8, 128)         0
 ng2D)
 batch_normalization_29 (Ba  (None, 8, 8, 128)         512
 tchNormalization)
 flatten_9 (Flatten)         (None, 8192)              0
 dense_18 (Dense)            (None, 256)               2097408
 dropout_9 (Dropout)         (None, 256)               0
 dense_19 (Dense)            (None, 10)                2570
=================================================================
Total params: 2194122 (8.37 MB)
Trainable params: 2193674 (8.37 MB)
Non-trainable params: 448 (1.75 KB)
_________________________________________________________________
Model: "sequential_10"
_________________________________________________________________
 Layer (type)                Output Shape              Param #
=================================================================
 conv2d_30 (Conv2D)          (None, 64, 64, 32)        896
 max_pooling2d_30 (MaxPooli  (None, 32, 32, 32)        0
 ng2D)
 batch_normalization_30 (Ba  (None, 32, 32, 32)        128
 tchNormalization)
 conv2d_31 (Conv2D)          (None, 32, 32, 64)        18496
 max_pooling2d_31 (MaxPooli  (None, 16, 16, 64)        0
 ng2D)
 batch_normalization_31 (Ba  (None, 16, 16, 64)        256
 tchNormalization)
 conv2d_32 (Conv2D)          (None, 16, 16, 128)       73856
 max_pooling2d_32 (MaxPooli  (None, 8, 8, 128)         0
 ng2D)
 batch_normalization_32 (Ba  (None, 8, 8, 128)         512
 tchNormalization)
 flatten_10 (Flatten)        (None, 8192)              0
 dense_20 (Dense)            (None, 256)               2097408
 dropout_10 (Dropout)        (None, 256)               0
 dense_21 (Dense)            (None, 10)                2570
=================================================================
Total params: 2194122 (8.37 MB)
Trainable params: 2193674 (8.37 MB)
Non-trainable params: 448 (1.75 KB)
_________________________________________________________________
Model: "sequential_11"
_________________________________________________________________
 Layer (type)                Output Shape              Param #
=================================================================
 conv2d_33 (Conv2D)          (None, 64, 64, 32)        896
 max_pooling2d_33 (MaxPooli  (None, 32, 32, 32)        0
 ng2D)
 batch_normalization_33 (Ba  (None, 32, 32, 32)        128
 tchNormalization)
 conv2d_34 (Conv2D)          (None, 32, 32, 64)        18496
 max_pooling2d_34 (MaxPooli  (None, 16, 16, 64)        0
 ng2D)
 batch_normalization_34 (Ba  (None, 16, 16, 64)        256
 tchNormalization)
 conv2d_35 (Conv2D)          (None, 16, 16, 128)       73856
 max_pooling2d_35 (MaxPooli  (None, 8, 8, 128)         0
 ng2D)
 batch_normalization_35 (Ba  (None, 8, 8, 128)         512
 tchNormalization)
 flatten_11 (Flatten)        (None, 8192)              0
 dense_22 (Dense)            (None, 256)               2097408
 dropout_11 (Dropout)        (None, 256)               0
 dense_23 (Dense)            (None, 10)                2570
=================================================================
Total params: 2194122 (8.37 MB)
Trainable params: 2193674 (8.37 MB)
Non-trainable params: 448 (1.75 KB)
_________________________________________________________________
C:\Users\Lenovo\nizaanth\Lib\site-packages\keras\src\initializers\initializers.py:120: UserWarning: The initializer RandomNormal is unseeded and being called multiple times, which will return identical values each time (even if the initializer is unseeded). Please update your code to provide a seed to the initializer, or avoid using the same initializer instance more than once.
…
