…
55 (32, 256, 256, 3) (32, 60)
56 (32, 256, 256, 3) (32, 60)
57 (32, 256, 256, 3) (32, 60)
58 (32, 256, 256, 3) (32, 60)
59 (32, 256, 256, 3) (32, 60)
60 (32, 256, 256, 3) (32, 60)
61 (32, 256, 256, 3) (32, 60)
62 (16, 256, 256, 3) (16, 60)
Model: "vgg16"
_________________________________________________________________
 Layer (type)                Output Shape              Param #   
=================================================================
 input_1 (InputLayer)        [(None, 256, 256, 3)]     0         
                                                                 
 block1_conv1 (Conv2D)       (None, 256, 256, 64)      1792      
                                                                 
 block1_conv2 (Conv2D)       (None, 256, 256, 64)      36928     
                                                                 
 block1_pool (MaxPooling2D)  (None, 128, 128, 64)      0         
                                                                 
 block2_conv1 (Conv2D)       (None, 128, 128, 128)     73856     
                                                                 
 block2_conv2 (Conv2D)       (None, 128, 128, 128)     147584    
                                                                 
 block2_pool (MaxPooling2D)  (None, 64, 64, 128)       0         
                                                                 
 block3_conv1 (Conv2D)       (None, 64, 64, 256)       295168    
                                                                 
 block3_conv2 (Conv2D)       (None, 64, 64, 256)       590080    
                                                                 
 block3_conv3 (Conv2D)       (None, 64, 64, 256)       590080    
                                                                 
 block3_pool (MaxPooling2D)  (None, 32, 32, 256)       0         
                                                                 
 block4_conv1 (Conv2D)       (None, 32, 32, 512)       1180160   
                                                                 
 block4_conv2 (Conv2D)       (None, 32, 32, 512)       2359808   
                                                                 
 block4_conv3 (Conv2D)       (None, 32, 32, 512)       2359808   
                                                                 
 block4_pool (MaxPooling2D)  (None, 16, 16, 512)       0         
                                                                 
 block5_conv1 (Conv2D)       (None, 16, 16, 512)       2359808   
                                                                 
 block5_conv2 (Conv2D)       (None, 16, 16, 512)       2359808   
                                                                 
 block5_conv3 (Conv2D)       (None, 16, 16, 512)       2359808   
                                                                 
 block5_pool (MaxPooling2D)  (None, 8, 8, 512)         0         
                                                                 
=================================================================
Total params: 14714688 (56.13 MB)
Trainable params: 14714688 (56.13 MB)
Non-trainable params: 0 (0.00 Byte)
_________________________________________________________________
Model: "model"
_________________________________________________________________
 Layer (type)                Output Shape              Param #   
=================================================================
 input_2 (InputLayer)        [(None, 256, 256, 3)]     0         
                                                                 
 tf.__operators__.getitem (  (None, 256, 256, 3)       0         
 SlicingOpLambda)                                                
                                                                 
 tf.nn.bias_add (TFOpLambda  (None, 256, 256, 3)       0         
 )                                                               
                                                                 
 vgg16 (Functional)          (None, 8, 8, 512)         14714688  
                                                                 
 flatten (Flatten)           (None, 32768)             0         
                                                                 
 dense (Dense)               (None, 128)               4194432   
                                                                 
 batch_normalization (Batch  (None, 128)               512       
 Normalization)                                                  
                                                                 
 dense_1 (Dense)             (None, 60)                7740      
                                                                 
=================================================================
Total params: 18917372 (72.16 MB)
Trainable params: 18917116 (72.16 MB)
Non-trainable params: 256 (1.00 KB)
_________________________________________________________________
Epoch 1/10
 1/63 [..............................] - ETA: 25:11 - loss: 49.8964 - binar
…
