…
[1mDownloading and preparing dataset Unknown size (download: Unknown size, generated: Unknown size, total: Unknown size) to C:\Users\Lenovo\tensorflow_datasets\eurosat\rgb\2.0.0...
[1mDataset eurosat downloaded and prepared to C:\Users\Lenovo\tensorflow_datasets\eurosat\rgb\2.0.0. Subsequent calls will reuse this data.
Model: "vgg16"
_________________________________________________________________
 Layer (type)                Output Shape              Param #
=================================================================
 input_6 (InputLayer)        [(None, 160, 160, 3)]     0
 block1_conv1 (Conv2D)       (None, 160, 160, 64)      1792
 block1_conv2 (Conv2D)       (None, 160, 160, 64)      36928
 block1_pool (MaxPooling2D)  (None, 80, 80, 64)        0
 block2_conv1 (Conv2D)       (None, 80, 80, 128)       73856
 block2_conv2 (Conv2D)       (None, 80, 80, 128)       147584
 block2_pool (MaxPooling2D)  (None, 40, 40, 128)       0
 block3_conv1 (Conv2D)       (None, 40, 40, 256)       295168
 block3_conv2 (Conv2D)       (None, 40, 40, 256)       590080
 block3_conv3 (Conv2D)       (None, 40, 40, 256)       590080
 block3_pool (MaxPooling2D)  (None, 20, 20, 256)       0
 block4_conv1 (Conv2D)       (None, 20, 20, 512)       1180160
 block4_conv2 (Conv2D)       (None, 20, 20, 512)       2359808
 block4_conv3 (Conv2D)       (None, 20, 20, 512)       2359808
 block4_pool (MaxPooling2D)  (None, 10, 10, 512)       0
 block5_conv1 (Conv2D)       (None, 10, 10, 512)       2359808
 block5_conv2 (Conv2D)       (None, 10, 10, 512)       2359808
 block5_conv3 (Conv2D)       (None, 10, 10, 512)       2359808
 block5_pool (MaxPooling2D)  (None, 5, 5, 512)         0
=================================================================
Total params: 14714688 (56.13 MB)
Trainable params: 14714688 (56.13 MB)
Non-trainable params: 0 (0.00 Byte)
