
Epoch 1/100
Model: "vgg16"
_________________________________________________________________
 Layer (type)                Output Shape              Param #
=================================================================
 input_13 (InputLayer)       [(None, 224, 224, 3)]     0
 block1_conv1 (Conv2D)       (None, 224, 224, 64)      1792
 block1_conv2 (Conv2D)       (None, 224, 224, 64)      36928
 block1_pool (MaxPooling2D)  (None, 112, 112, 64)      0
 block2_conv1 (Conv2D)       (None, 112, 112, 128)     73856
 block2_conv2 (Conv2D)       (None, 112, 112, 128)     147584
 block2_pool (MaxPooling2D)  (None, 56, 56, 128)       0
 block3_conv1 (Conv2D)       (None, 56, 56, 256)       295168
 block3_conv2 (Conv2D)       (None, 56, 56, 256)       590080
 block3_conv3 (Conv2D)       (None, 56, 56, 256)       590080
 block3_pool (MaxPooling2D)  (None, 28, 28, 256)       0
 block4_conv1 (Conv2D)       (None, 28, 28, 512)       1180160
 block4_conv2 (Conv2D)       (None, 28, 28, 512)       2359808
 block4_conv3 (Conv2D)       (None, 28, 28, 512)       2359808
 block4_pool (MaxPooling2D)  (None, 14, 14, 512)       0
 block5_conv1 (Conv2D)       (None, 14, 14, 512)       2359808
 block5_conv2 (Conv2D)       (None, 14, 14, 512)       2359808
 block5_conv3 (Conv2D)       (None, 14, 14, 512)       2359808
 block5_pool (MaxPooling2D)  (None, 7, 7, 512)         0
 flatten (Flatten)           (None, 25088)             0
 fc1 (Dense)                 (None, 4096)              102764544
 fc2 (Dense)                 (None, 4096)              16781312
 predictions (Dense)         (None, 1000)              4097000
=================================================================
Total params: 138357544 (527.79 MB)
Trainable params: 138357544 (527.79 MB)
Non-trainable params: 0 (0.00 Byte)
_________________________________________________________________
Model: "vgg16"
_________________________________________________________________
 Layer (type)                Output Shape              Param #
=================================================================
 input_14 (InputLayer)       [(None, 64, 64, 3)]       0
 block1_conv1 (Conv2D)       (None, 64, 64, 64)        1792
 block1_conv2 (Conv2D)       (None, 64, 64, 64)        36928
 block1_pool (MaxPooling2D)  (None, 32, 32, 64)        0
 block2_conv1 (Conv2D)       (None, 32, 32, 128)       73856
 block2_conv2 (Conv2D)       (None, 32, 32, 128)       147584
 block2_pool (MaxPooling2D)  (None, 16, 16, 128)       0
 block3_conv1 (Conv2D)       (None, 16, 16, 256)       295168
 block3_conv2 (Conv2D)       (None, 16, 16, 256)       590080
 block3_conv3 (Conv2D)       (None, 16, 16, 256)       590080
 block3_pool (MaxPooling2D)  (None, 8, 8, 256)         0
 block4_conv1 (Conv2D)       (None, 8, 8, 512)         1180160
 block4_conv2 (Conv2D)       (None, 8, 8, 512)         2359808
 block4_conv3 (Conv2D)       (None, 8, 8, 512)         2359808
 block4_pool (MaxPooling2D)  (None, 4, 4, 512)         0
 block5_conv1 (Conv2D)       (None, 4, 4, 512)         2359808
 block5_conv2 (Conv2D)       (None, 4, 4, 512)         2359808
 block5_conv3 (Conv2D)       (None, 4, 4, 512)         2359808
 block5_pool (MaxPooling2D)  (None, 2, 2, 512)         0
=================================================================
Total params: 14714688 (56.13 MB)
Trainable params: 14714688 (56.13 MB)
Non-trainable params: 0 (0.00 Byte)
_________________________________________________________________
Model: "vgg16"
_________________________________________________________________
 Layer (type)                Output Shape              Param #
=================================================================
 input_15 (InputLayer)       [(None, 64, 64, 3)]       0
 block1_conv1 (Conv2D)       (None, 64, 64, 64)        1792
 block1_conv2 (Conv2D)       (None, 64, 64, 64)        36928
 block1_pool (MaxPooling2D)  (None, 32, 32, 64)        0
 block2_conv1 (Conv2D)       (None, 32, 32, 128)       73856
 block2_conv2 (Conv2D)       (None, 32, 32, 128)       147584
 block2_pool (MaxPooling2D)  (None, 16, 16, 128)       0
 block3_conv1 (Conv2D)       (None, 16, 16, 256)       295168
 block3_conv2 (Conv2D)       (None, 16, 16, 256)       590080
 block3_conv3 (Conv2D)       (None, 16, 16, 256)       590080
 block3_pool (MaxPooling2D)  (None, 8, 8, 256)         0
 block4_conv1 (Conv2D)       (None, 8, 8, 512)         1180160
 block4_conv2 (Conv2D)       (None, 8, 8, 512)         2359808
 block4_conv3 (Conv2D)       (None, 8, 8, 512)         2359808
 block4_pool (MaxPooling2D)  (None, 4, 4, 512)         0
 block5_conv1 (Conv2D)       (None, 4, 4, 512)         2359808
 block5_conv2 (Conv2D)       (None, 4, 4, 512)         2359808
 block5_conv3 (Conv2D)       (None, 4, 4, 512)         2359808
 block5_pool (MaxPooling2D)  (None, 2, 2, 512)         0
=================================================================
Total params: 14714688 (56.13 MB)
Trainable params: 14714688 (56.13 MB)
Non-trainable params: 0 (0.00 Byte)
_________________________________________________________________
Model: "vgg16"
_________________________________________________________________
 Layer (type)                Output Shape              Param #
=================================================================
 input_16 (InputLayer)       [(None, 64, 64, 3)]       0
 block1_conv1 (Conv2D)       (None, 64, 64, 64)        1792
 block1_conv2 (Conv2D)       (None, 64, 64, 64)        36928
 block1_pool (MaxPooling2D)  (None, 32, 32, 64)        0
 block2_conv1 (Conv2D)       (None, 32, 32, 128)       73856
 block2_conv2 (Conv2D)       (None, 32, 32, 128)       147584
 block2_pool (MaxPooling2D)  (None, 16, 16, 128)       0
 block3_conv1 (Conv2D)       (None, 16, 16, 256)       295168
 block3_conv2 (Conv2D)       (None, 16, 16, 256)       590080
 block3_conv3 (Conv2D)       (None, 16, 16, 256)       590080
 block3_pool (MaxPooling2D)  (None, 8, 8, 256)         0
 block4_conv1 (Conv2D)       (None, 8, 8, 512)         1180160
 block4_conv2 (Conv2D)       (None, 8, 8, 512)         2359808
 block4_conv3 (Conv2D)       (None, 8, 8, 512)         2359808
 block4_pool (MaxPooling2D)  (None, 4, 4, 512)         0
 block5_conv1 (Conv2D)       (None, 4, 4, 512)         2359808
 block5_conv2 (Conv2D)       (None, 4, 4, 512)         2359808
 block5_conv3 (Conv2D)       (None, 4, 4, 512)         2359808
 block5_pool (MaxPooling2D)  (None, 2, 2, 512)         0
=================================================================
Total params: 14714688 (56.13 MB)
Trainable params: 14714688 (56.13 MB)
Non-trainable params: 0 (0.00 Byte)
_________________________________________________________________
Epoch 1/100
Model: "model_5"
_________________________________________________________________
 Layer (type)                Output Shape              Param #
=================================================================
 input_18 (InputLayer)       [(None, 64, 64, 3)]       0
 tf.__operators__.getitem_7  (None, 64, 64, 3)         0
  (SlicingOpLambda)
 tf.nn.bias_add_7 (TFOpLamb  (None, 64, 64, 3)         0
 da)
 vgg16 (Functional)          (None, 2, 2, 512)         14714688
 dense_10 (Dense)            (None, 2, 2, 100)         51300
 dense_11 (Dense)            (None, 2, 2, 10)          1010
=================================================================
Total params: 14766998 (56.33 MB)
Trainable params: 52310 (204.34 KB)
Non-trainable params: 14714688 (56.13 MB)
_________________________________________________________________
Epoch 1/100
WARNING:tensorflow:From C:\Users\Lenovo\nizaanth\Lib\site-packages\keras\src\utils\tf_utils.py:492: The name tf.ragged.RaggedTensorValue is deprecated. Please use tf.compat.v1.ragged.RaggedTensorValue instead.
…
